['train_simplified', 'test_simplified.csv']
Number of labels: 340
Number of records: 49707919
(30000, 80, 80, 1) (30000, 340)
Validation array memory 0.72 GB
basemodelmodelcomplie_________________________________________________________________
Layer (type)                 Output Shape              Param #   
=================================================================
input_1 (InputLayer)         (None, 80, 80, 1)         0         
_________________________________________________________________
conv1 (Conv2D)               (None, 40, 40, 32)        288       
_________________________________________________________________
conv1_bn (BatchNormalization (None, 40, 40, 32)        128       
_________________________________________________________________
conv1_relu (Activation)      (None, 40, 40, 32)        0         
_________________________________________________________________
conv_dw_1 (DepthwiseConv2D)  (None, 40, 40, 32)        288       
_________________________________________________________________
conv_dw_1_bn (BatchNormaliza (None, 40, 40, 32)        128       
_________________________________________________________________
conv_dw_1_relu (Activation)  (None, 40, 40, 32)        0         
_________________________________________________________________
conv_pw_1 (Conv2D)           (None, 40, 40, 64)        2048      
_________________________________________________________________
conv_pw_1_bn (BatchNormaliza (None, 40, 40, 64)        256       
_________________________________________________________________
conv_pw_1_relu (Activation)  (None, 40, 40, 64)        0         
_________________________________________________________________
conv_dw_2 (DepthwiseConv2D)  (None, 20, 20, 64)        576       
_________________________________________________________________
conv_dw_2_bn (BatchNormaliza (None, 20, 20, 64)        256       
_________________________________________________________________
conv_dw_2_relu (Activation)  (None, 20, 20, 64)        0         
_________________________________________________________________
conv_pw_2 (Conv2D)           (None, 20, 20, 128)       8192      
_________________________________________________________________
conv_pw_2_bn (BatchNormaliza (None, 20, 20, 128)       512       
_________________________________________________________________
conv_pw_2_relu (Activation)  (None, 20, 20, 128)       0         
_________________________________________________________________
conv_dw_3 (DepthwiseConv2D)  (None, 20, 20, 128)       1152      
_________________________________________________________________
conv_dw_3_bn (BatchNormaliza (None, 20, 20, 128)       512       
_________________________________________________________________
conv_dw_3_relu (Activation)  (None, 20, 20, 128)       0         
_________________________________________________________________
conv_pw_3 (Conv2D)           (None, 20, 20, 128)       16384     
_________________________________________________________________
conv_pw_3_bn (BatchNormaliza (None, 20, 20, 128)       512       
_________________________________________________________________
conv_pw_3_relu (Activation)  (None, 20, 20, 128)       0         
_________________________________________________________________
conv_dw_4 (DepthwiseConv2D)  (None, 10, 10, 128)       1152      
_________________________________________________________________
conv_dw_4_bn (BatchNormaliza (None, 10, 10, 128)       512       
_________________________________________________________________
conv_dw_4_relu (Activation)  (None, 10, 10, 128)       0         
_________________________________________________________________
conv_pw_4 (Conv2D)           (None, 10, 10, 256)       32768     
_________________________________________________________________
conv_pw_4_bn (BatchNormaliza (None, 10, 10, 256)       1024      
_________________________________________________________________
conv_pw_4_relu (Activation)  (None, 10, 10, 256)       0         
_________________________________________________________________
conv_dw_5 (DepthwiseConv2D)  (None, 10, 10, 256)       2304      
_________________________________________________________________
conv_dw_5_bn (BatchNormaliza (None, 10, 10, 256)       1024      
_________________________________________________________________
conv_dw_5_relu (Activation)  (None, 10, 10, 256)       0         
_________________________________________________________________
conv_pw_5 (Conv2D)           (None, 10, 10, 256)       65536     
_________________________________________________________________
conv_pw_5_bn (BatchNormaliza (None, 10, 10, 256)       1024      
_________________________________________________________________
conv_pw_5_relu (Activation)  (None, 10, 10, 256)       0         
_________________________________________________________________
conv_dw_6 (DepthwiseConv2D)  (None, 5, 5, 256)         2304      
_________________________________________________________________
conv_dw_6_bn (BatchNormaliza (None, 5, 5, 256)         1024      
_________________________________________________________________
conv_dw_6_relu (Activation)  (None, 5, 5, 256)         0         
_________________________________________________________________
conv_pw_6 (Conv2D)           (None, 5, 5, 512)         131072    
_________________________________________________________________
conv_pw_6_bn (BatchNormaliza (None, 5, 5, 512)         2048      
_________________________________________________________________
conv_pw_6_relu (Activation)  (None, 5, 5, 512)         0         
_________________________________________________________________
conv_dw_7 (DepthwiseConv2D)  (None, 5, 5, 512)         4608      
_________________________________________________________________
conv_dw_7_bn (BatchNormaliza (None, 5, 5, 512)         2048      
_________________________________________________________________
conv_dw_7_relu (Activation)  (None, 5, 5, 512)         0         
_________________________________________________________________
conv_pw_7 (Conv2D)           (None, 5, 5, 512)         262144    
_________________________________________________________________
conv_pw_7_bn (BatchNormaliza (None, 5, 5, 512)         2048      
_________________________________________________________________
conv_pw_7_relu (Activation)  (None, 5, 5, 512)         0         
_________________________________________________________________
conv_dw_8 (DepthwiseConv2D)  (None, 5, 5, 512)         4608      
_________________________________________________________________
conv_dw_8_bn (BatchNormaliza (None, 5, 5, 512)         2048      
_________________________________________________________________
conv_dw_8_relu (Activation)  (None, 5, 5, 512)         0         
_________________________________________________________________
conv_pw_8 (Conv2D)           (None, 5, 5, 512)         262144    
_________________________________________________________________
conv_pw_8_bn (BatchNormaliza (None, 5, 5, 512)         2048      
_________________________________________________________________
conv_pw_8_relu (Activation)  (None, 5, 5, 512)         0         
_________________________________________________________________
conv_dw_9 (DepthwiseConv2D)  (None, 5, 5, 512)         4608      
_________________________________________________________________
conv_dw_9_bn (BatchNormaliza (None, 5, 5, 512)         2048      
_________________________________________________________________
conv_dw_9_relu (Activation)  (None, 5, 5, 512)         0         
_________________________________________________________________
conv_pw_9 (Conv2D)           (None, 5, 5, 512)         262144    
_________________________________________________________________
conv_pw_9_bn (BatchNormaliza (None, 5, 5, 512)         2048      
_________________________________________________________________
conv_pw_9_relu (Activation)  (None, 5, 5, 512)         0         
_________________________________________________________________
conv_dw_10 (DepthwiseConv2D) (None, 5, 5, 512)         4608      
_________________________________________________________________
conv_dw_10_bn (BatchNormaliz (None, 5, 5, 512)         2048      
_________________________________________________________________
conv_dw_10_relu (Activation) (None, 5, 5, 512)         0         
_________________________________________________________________
conv_pw_10 (Conv2D)          (None, 5, 5, 512)         262144    
_________________________________________________________________
conv_pw_10_bn (BatchNormaliz (None, 5, 5, 512)         2048      
_________________________________________________________________
conv_pw_10_relu (Activation) (None, 5, 5, 512)         0         
_________________________________________________________________
conv_dw_11 (DepthwiseConv2D) (None, 5, 5, 512)         4608      
_________________________________________________________________
conv_dw_11_bn (BatchNormaliz (None, 5, 5, 512)         2048      
_________________________________________________________________
conv_dw_11_relu (Activation) (None, 5, 5, 512)         0         
_________________________________________________________________
conv_pw_11 (Conv2D)          (None, 5, 5, 512)         262144    
_________________________________________________________________
conv_pw_11_bn (BatchNormaliz (None, 5, 5, 512)         2048      
_________________________________________________________________
conv_pw_11_relu (Activation) (None, 5, 5, 512)         0         
_________________________________________________________________
conv_dw_12 (DepthwiseConv2D) (None, 3, 3, 512)         4608      
_________________________________________________________________
conv_dw_12_bn (BatchNormaliz (None, 3, 3, 512)         2048      
_________________________________________________________________
conv_dw_12_relu (Activation) (None, 3, 3, 512)         0         
_________________________________________________________________
conv_pw_12 (Conv2D)          (None, 3, 3, 1024)        524288    
_________________________________________________________________
conv_pw_12_bn (BatchNormaliz (None, 3, 3, 1024)        4096      
_________________________________________________________________
conv_pw_12_relu (Activation) (None, 3, 3, 1024)        0         
_________________________________________________________________
conv_dw_13 (DepthwiseConv2D) (None, 3, 3, 1024)        9216      
_________________________________________________________________
conv_dw_13_bn (BatchNormaliz (None, 3, 3, 1024)        4096      
_________________________________________________________________
conv_dw_13_relu (Activation) (None, 3, 3, 1024)        0         
_________________________________________________________________
conv_pw_13 (Conv2D)          (None, 3, 3, 1024)        1048576   
_________________________________________________________________
conv_pw_13_bn (BatchNormaliz (None, 3, 3, 1024)        4096      
_________________________________________________________________
conv_pw_13_relu (Activation) (None, 3, 3, 1024)        0         
_________________________________________________________________
flatten_1 (Flatten)          (None, 9216)              0         
_________________________________________________________________
dense_1 (Dense)              (None, 1024)              9438208   
_________________________________________________________________
dense_2 (Dense)              (None, 340)               348500    
=================================================================
Total params: 13,014,996
Trainable params: 12,993,108
Non-trainable params: 21,888
_________________________________________________________________
Epoch 1/15
